models/tcn/baseline_model_tcn.pt.ckpt (torch, 22539 bytes, 24 tensors)

res_blocks.0.conv1.weight f8 [5, 3, 5]
000000 e8 72 87 8d a0 7f b1 bf 25 c3 e2 86 c2 b7 c2 bf
       -0.06835368590641233 -0.14623290621013854
000010 72 a0 6a c2 c4 ca c8 bf 9c 94 cd ec d6 ba bf bf
       -0.1936880063342446 -0.12394469529461322
000020 72 5e 9d 84 40 5e b6 3f b3 f4 2b f4 f5 52 c5 3f
       0.08737567174591179 0.16659426138349928
000030 d9 44 5c 6b 7b 2a 74 3f 38 48 0f 28 eb 69 cc 3f
       0.0049233265942955845 0.2219823785404189
000040 75 55 0f 55 9e 79 c2 bf da 06 93 b6 4c 1b c8 3f
       -0.1443365016299755 0.18833311953317527
000050 e5 59 0f 5e 29 a2 cd 3f 7a e8 c0 a1 ff 51 b4 bf
       0.23151127903720617 -0.07937619875966276
000060 31 5c 0d a1 e5 97 a7 bf f0 8e c5 fb 23 4e b8 bf
       -0.04608075705498783 -0.09494233032961197
000070 05 ea cb 99 df 74 87 3f ab e4 0b ca f5 7f be 3f
       0.011453387146947778 0.11914001639151432
000080 a5 42 62 da d1 0e c0 3f e2 fc 30 5a 7f f3 78 bf
       0.12545226252816125 -0.006091592283211629
000090 94 3d de 03 de 48 cb bf 55 d9 2c 78 dd 28 aa 3f
       -0.21316123188851732 0.05109302608473124
0000a0 ad 8c de d0 90 eb bf bf 58 23 81 0c 75 9e cf bf
       -0.12468819712971664 -0.24702323065346365
0000b0 76 07 36 c4 01 00 cf bf dc b8 45 a5 37 de a7 bf
       -0.2421877105771803 -0.04661725895390287
0000c0 2d d2 97 39 8e 26 bb bf 01 50 ad 02 1b ef cb bf
       -0.10605706125336019 -0.21823442106926907
0000d0 4a 0f 73 85 7b f4 91 bf cb ee eb df cc ca ba bf
       -0.017534189243419797 -0.10465698687397233
0000e0 24 63 5c c4 47 4d 8f bf 14 03 c5 b6 f8 e1 a9 bf
       -0.01528411930080293 -0.05055215102266267
0000f0 f1 7c e7 ec 31 76 ca bf 3c 9b ce 06 f6 73 ab 3f
       -0.2067320257910761 0.05361908753484676
000100 49 02 ea 72 66 54 c1 bf 8b 02 cd 6f f2 1f c5 bf
       -0.1353881894210807 -0.16503744563126008
000110 03 11 c5 01 8b 7e c2 bf 30 1a 06 01 91 cd 8a 3f
       -0.14448678575912063 0.013087399333710698
000120 2b f1 e8 9c 85 f5 c6 bf c6 13 4e 3f dc 70 c2 3f
       -0.17936773454301522 0.14406922427238394
000130 83 a7 8b 99 fe b3 c5 3f fb 7d 4c fb 25 5a a3 bf
       0.16955549714412763 -0.03779715244877121
000140 fb 69 9d ba fe 47 c4 bf d9 36 48 ad 68 1b ce bf
       -0.1584471141057547 -0.23521145306624794
000150 dc 4f 21 76 14 d7 94 3f d9 90 16 e3 bf 4d c1 3f
       0.0203517148114115 0.1351852282360884
000160 f3 58 6c 0e ee 24 cc bf 48 66 ab bd 86 7c b8 bf
       -0.21987701133975399 -0.09565012102702852
000170 6b 70 a4 33 11 76 c2 3f b2 8e 77 96 2b 85 c4 3f
       0.14422812482451106 0.16031403395674243
000180 61 e8 85 77 06 49 98 bf af 53 12 94 21 04 b8 3f
       -0.02371606926451653 0.09381303658513106
000190 98 90 87 2f 8e 08 96 bf 1a de 15 6b 46 c5 a1 3f
       -0.02151701130959846 0.03470821435160705
0001a0 72 81 3d 6d ae 89 cd 3f 11 e3 48 4b 77 1b c0 3f
       0.23076420148846527 0.12583819557200873
0001b0 d3 d2 7e c7 71 58 b6 bf d0 51 ba e8 a0 1b 97 3f
       -0.08728705521100304 0.02256633205850439
0001c0 70 21 5a b1 92 e3 cd bf ef bc 4f 65 fe f4 85 bf
       -0.2335074773766439 -0.010721194712429908
0001d0 aa 5b 49 de 2b 0e bc 3f c4 af d0 af 5e 64 a6 bf
       0.109591237801722 -0.043734511339010435
0001e0 ca 88 d4 bf a3 c3 c4 3f 2e c3 c6 d5 d1 4e cc bf
       0.16222044817647535 -0.22115538538266705
0001f0 c1 cf b1 4c 12 0a b6 3f 7d 5c 23 24 a9 f1 c7 3f
       0.08609117863107853 0.18706239952618722
000200 86 58 85 6b c3 37 c4 bf 33 b4 7e e9 67 32 ca 3f
       -0.15795176267664973 0.20466326619262673
000210 ae 70 04 ee 55 cf a5 3f d6 9c e4 d9 fa ad 80 bf
       0.04259747057423745 -0.00814434030014725
000220 f5 0e 38 4c d5 0b a0 3f 74 fe 0e d0 0b 7a c4 bf
       0.03134028010756921 -0.15997455271825667
000230 cd f1 7b 56 c9 99 ce 3f 76 ac 48 99 fd 63 c2 3f
       0.2390681907926492 0.14367647156300095
000240 f6 8e 27 6f 85 e6 98 3f 22 84 0b 7d e3 37 cc bf
       0.02431686869557744 -0.22045558553421168
000250 bf ce 39 f7 81 30 ca bf
       -0.20460533687184143

res_blocks.0.conv1.bias f8 [5]
000000 3a ad 04 29 ce d0 92 3f 58 1c e0 05 61 5a c3 3f
       0.01837465405803338 0.15119564806829788
000010 f8 cb 6f 04 ad e3 c2 bf 3e 20 d7 a4 0b 0c b2 bf
       -0.14757311550746954 -0.070496299499724
000020 0d f1 5b a5 75 92 c9 3f
       0.19978209089448065

res_blocks.0.conv2.weight f8 [5, 5, 5]
000000 dd af 17 92 a1 37 a8 bf d6 87 50 d8 4a 5b ad bf
       -0.04729943188053174 -0.057337130456531035
000010 3c c1 c5 9b d5 6f b1 bf 07 17 eb 87 31 0d c2 3f
       -0.06811270764388139 0.1410276330627129
000020 b2 b5 ab 8c 44 e3 68 3f 74 c1 98 51 e1 7e 7b bf
       0.0030380572182966076 -0.00671279921657263
000030 96 ad ad 8a 99 90 bc bf 8f 1e 77 a0 b4 c6 bc bf
       -0.11158141742423874 -0.11240700643167599
000040 a0 b0 c9 5f 90 c8 89 bf 92 d6 9d 23 3f d6 c4 3f
       -0.012589576647961842 0.1627882884892427
000050 c2 47 93 b8 e6 a3 c2 3f fd e2 a6 0f c9 ca c0 bf
       0.14562686932054986 -0.1311885191369341
000060 0d e5 3b 93 4c 2c b4 bf c4 e4 78 9a a4 43 c8 3f
       -0.07880095095233149 0.18956429998960378
000070 40 1b 12 56 21 e6 c1 bf 1b af 7d 87 d0 27 b0 bf
       -0.13983551695511132 -0.06310752208599661
000080 d4 82 21 a3 5f 0c b2 bf 8e ea ff 52 07 a8 b3 3f
       -0.0705013058918767 0.07678266311988066
000090 6a db 21 41 8d 1b c7 3f 35 ed 84 93 0b 82 83 bf
       0.18052831344877102 -0.009525385322027272
0000a0 6a 31 6f b0 77 42 a5 bf 69 d7 5e 63 43 22 b2 bf
       -0.04152273205508801 -0.07083531547581647
0000b0 e6 e0 10 a8 22 72 c9 bf 66 bf 99 65 15 d5 bd bf
       -0.19879563528389282 -0.11653264742358047
0000c0 51 6c f8 99 46 69 6d 3f cd f6 d0 18 b3 39 c4 3f
       0.0035902384695538987 0.1580108519719289
0000d0 eb 7f 15 9d 54 5a c2 bf c1 7f a1 2f ab 8c c8 3f
       -0.14338166875950206 0.19179286790585873
0000e0 50 b4 3e ab 48 2f ae bf 3b 69 3c f3 6a 87 c5 bf
       -0.05895449724571533 -0.16819512249714727
0000f0 b6 85 b5 d8 1e 01 a7 bf db c9 62 b1 45 d7 b2 bf
       -0.044930423692459184 -0.07359729366979854
000100 0e 09 c1 b8 fe 70 ad 3f ba 63 2d 2b 42 7d b9 bf
       0.057502708485588014 -0.09956754259236691
000110 11 9c 4b 3d bc 42 ae 3f 12 b2 65 b3 02 c0 c4 3f
       0.0591029000113893 0.16210969695693273
000120 1a 96 0c a7 f0 c2 c4 bf c9 93 8e 86 0f ca b5 3f
       -0.16219909817407158 0.08511445078927617
000130 64 b0 a6 70 8f ca b8 3f 2a 31 d9 ee dc db 9c 3f
       0.09684082508346276 0.028182460859441573
000140 bf 49 b3 a8 fa 38 c3 3f f0 6b f4 bf 55 64 c5 bf
       0.15017636525460706 -0.16712447998801805
000150 22 7b 1d 88 ba 26 ae bf a6 ad c3 d3 65 ea 93 bf
       -0.05888922607004178 -0.01944884400374538
000160 7d 6b 62 f3 f7 86 c7 bf c7 09 2a 43 c9 63 be bf
       -0.18380641349798657 -0.11871011628867399
000170 b6 1d 45 30 79 3e c0 3f 6b 23 88 51 7e 05 a4 bf
       0.1269065366452488 -0.03910441155682672
000180 2f af a7 9d ee f2 b0 bf d5 a5 fc 84 b0 d3 c1 bf
       -0.06620684956550059 -0.1392727517461895
000190 5a ee ae 46 fa ce c3 3f 21 24 db e4 6b e7 b7 3f
       0.15475395633062555 0.09337496125512292
0001a0 9b 15 d0 09 e8 c0 c1 bf 52 54 86 24 ff d2 84 bf
       -0.13869953612463068 -0.010168069173952219
0001b0 ec b0 65 4f b6 ec bb 3f 8b 52 68 5b 98 99 b1 3f
       0.10908069075020749 0.06874992591503763
0001c0 a0 b6 e5 1a 19 d3 c4 bf cd 7a a2 67 5e df bb 3f
       -0.16269220174165344 0.1088770869268771
0001d0 d5 13 18 43 a5 b2 60 3f 32 cb 1c 09 e7 4c bc 3f
       0.0020383098387832623 0.11054843876335665
0001e0 61 f0 e3 e0 44 a2 c4 bf 03 96 c5 d5 3e 58 bf 3f
       -0.1612020586106864 0.12244026869810658
0001f0 b0 87 50 0e e3 28 ba 3f 1b a0 7c a4 21 2d be bf
       0.10218638514973466 -0.1178761507586618
000200 d8 c1 7b 32 ef de ac bf 45 58 51 93 81 71 c6 bf
       -0.05638835421803251 -0.17533893292665162
000210 a5 97 ca 97 c7 36 bc 3f b9 66 98 d8 b5 58 c6 3f
       0.11021087127536917 0.17458222461646303
000220 54 b9 b2 3a fd 4d c1 bf 9b 89 4b 13 48 ca b3 3f
       -0.13519254079933296 0.07730532141753203
000230 f5 1c 08 cd eb 51 c6 3f b7 56 78 2f eb 4d c6 bf
       0.174375033486491 -0.1742528898036448
000240 48 a3 12 e4 05 f2 b5 bf 0c 6e 58 69 17 91 8c 3f
       -0.08572422807868663 0.013948614981067052
000250 e2 f0 4b 0c 9f ae c6 3f bb 5c bd 47 9c f8 c4 bf
       0.1772040185968598 -0.1638369894305692
000260 3c e0 b4 39 53 64 c5 3f 63 c4 b7 f7 be 01 c6 3f
       0.16712417905523747 0.17192828269574809
000270 2b 95 ac 8f c0 56 c1 bf 1d 0a b3 00 fc 27 b0 3f
       -0.13545996680583391 0.06311011330675638
000280 b1 c9 61 56 f2 df c7 3f 67 79 54 9f ef ac b0 bf
       0.18652180879469207 -0.06513879432575252
000290 31 c1 45 8f c6 c1 c9 3f 3e 54 84 ea 07 4d ba bf
       0.20122606273390312 -0.10273789859304913
0002a0 3b 9e da b6 87 88 8d bf ba 08 9b 5c 4f 51 c8 3f
       -0.014420566814194227 0.1899813844848433
0002b0 06 44 6a bf 65 3d ab 3f 5f d4 0b 96 a0 36 be bf
       0.05320280038461793 -0.11802104628789455
0002c0 72 38 d1 75 23 f4 c8 3f fb 96 05 54 19 fb be 3f
       0.19495051625057475 0.12101896573366482
0002d0 dc 19 c0 0d 64 21 87 bf 8d 5b bf ac e2 4d c0 3f
       -0.011294156713131658 0.12737687525688238
0002e0 e3 98 da e0 72 5d c8 bf d1 bb 27 8a 71 3e 9b 3f
       -0.19035182933038816 0.02660539060337525
0002f0 ca 04 a1 0e 40 26 c3 3f 87 e8 fb 21 04 56 c3 bf
       0.1496048041754306 -0.15106250438094923
000300 5e f1 44 af b8 19 c9 3f 23 32 90 15 bf 81 c6 bf
       0.19609745557853392 -0.17583454659360695
000310 27 58 ad 7f bb b9 c2 bf b7 d7 b8 14 dd 2c c6 bf
       -0.146293103544566 -0.17324412833994327
000320 1d 61 9b 9a 5a 92 bd 3f 01 25 78 45 88 ea c1 bf
       0.1155144336183906 -0.1399698580937994
000330 16 76 c9 93 22 67 be bf bb d1 94 ae 28 5f aa 3f
       -0.11876121624069244 0.05150725489730542
000340 39 ef dd 17 f3 1d c9 3f 70 04 6d 84 df b1 b3 3f
       0.19622648873689189 0.07693287833264306
000350 56 cb 92 f3 fc 44 8f bf 33 54 c8 14 bd 6b c9 bf
       -0.015268303092261053 -0.198600421092722
000360 88 98 a5 a3 b9 86 c3 bf 2d 07 3d 3b c1 23 89 bf
       -0.15254898539132378 -0.012275228138267725
000370 d2 b1 25 5a 20 a9 c0 3f 67 c9 51 00 6b bd a7 3f
       0.13016132737847258 0.04636701945209403
000380 ac c6 78 7a 58 ad 9f bf 15 04 3f 38 ed 81 85 bf
       -0.030934698557934112 -0.010501721648212873
000390 69 d1 f7 ec 26 dc c5 3f 58 40 8e 3f 87 35 a4 bf
       0.17078100748734507 -0.039470888622532285
0003a0 7b d8 df 2d 87 0c b2 3f d5 ff 16 b3 c5 d4 c0 3f
       0.07050366277676005 0.1314932941877475
0003b0 68 5b 3c 59 41 a4 c4 3f 16 0c ea bc 17 6e 8c bf
       0.16126267296996422 -0.013881860211091317
0003c0 e0 ec ae 6c c4 7b c2 3f bd 88 69 b2 3c b4 c7 bf
       0.14440207773973324 -0.18518789969954766
0003d0 26 f2 cc f0 a6 c9 a1 bf 38 74 c8 35 d2 02 b9 3f
       -0.03474160851917345 0.09769929707586378
0003e0 bd a0 2d 7c be 92 90 3f
       0.016184784249532614

res_blocks.0.conv2.bias f8 [5]
000000 07 b9 5b fb ca 60 c4 3f d0 06 8e 72 e3 98 c0 3f
       0.1592038848243151 0.12966578572745968
000010 83 6a 55 b1 38 21 c3 3f 82 b3 ff 57 2f 36 c3 bf
       0.1494513383757586 -0.15009109303300866
000020 f1 6f 87 9c 61 0c c1 bf
       -0.1331903471281062

res_blocks.0.conv3.weight f8 [5, 3, 1]
000000 c2 76 ac 07 eb 1d d4 bf 4a 69 6b 45 40 95 da bf
       -0.3143260550440169 -0.41535956172233013
000010 60 58 22 68 be 5f d5 bf c6 73 07 3d 50 89 df bf
       -0.3339687363562742 -0.49275594673036627
000020 fb 5c 2a 53 d1 b8 dc 3f 95 35 a8 02 d0 e1 c0 3f
       0.44878037568692236 0.13189125184764508
000030 94 9e 35 1a 78 84 d7 bf 25 d7 92 28 d2 81 c8 bf
       -0.36746027526394553 -0.1914618204224833
000040 8d 2a a2 b8 af 0c c3 3f 85 5d 62 2b bb db d2 3f
       0.14882465853982688 0.2946613238977636
000050 be fc 39 c9 b0 18 dd bf 4e 98 8c b9 c3 ec 8c bf
       -0.45463199282671585 -0.014123467540752579
000060 38 2e 7b dc cf 68 c8 bf c2 7d a5 1e b9 87 db 3f
       -0.19069860711748432 0.43015888207261466
000070 e5 85 91 19 bd 16 b9 bf
       -0.09800321459035606

res_blocks.0.conv3.bias f8 [5]
000000 ff 38 3a 7b 34 c7 cb 3f b9 1f 23 2e bc d7 de bf
       0.21701675431217635 -0.4819174242552396
000010 7b dd 61 16 bc 70 c4 3f 21 9c d9 7d 1a 72 d0 bf
       0.15969039051899955 -0.2569643239025386
000020 d7 de c8 2f 18 03 d5 3f
       0.32831387201757195

res_blocks.1.conv1.weight f8 [5, 5, 5]
000000 42 ac e7 d2 ee 1d 93 3f 00 61 eb 77 0b fa 9f 3f
       0.018668872473352367 0.031227282709409998
000010 57 90 3e fe a0 24 90 bf 3d 5e b7 85 cb 54 b2 3f
       -0.015764728086324755 0.07160636915738734
000020 d5 7b 81 66 62 52 bc 3f 0d 9e db 85 cc c1 c6 bf
       0.1106320858248034 -0.17778927360562627
000030 20 3e 25 9a 4a 3f ab bf b3 bd 38 87 20 58 99 bf
       -0.05321725017222101 -0.02475024056746884
000040 b0 c4 59 85 57 63 b4 3f d3 56 f9 98 9c 09 c2 bf
       0.07964083676940237 -0.14091832608635588
000050 0a 59 46 f4 59 13 c2 3f fe 3b 0d 02 d6 15 a6 bf
       0.14121555736046104 -0.043135345220996144
000060 23 00 1c bf 37 85 a3 3f f7 3a 56 fd 1c d2 a5 3f
       0.03812574584844721 0.04261866180887879
000070 4a 7a da 9b 2d ee c7 bf 82 ee cf e4 16 85 9d bf
       -0.18695612058668792 -0.028828008380499266
000080 25 a2 e7 3c 5a e8 b3 3f aa f3 88 14 ff 2f ab bf
       0.07776416766103773 -0.05310055852576252
000090 f8 16 2e 2b e8 58 b7 3f 6a 79 46 4a e1 c7 92 bf
       0.09120036176872393 -0.018340606840518893
0000a0 c5 27 e5 fc 37 a6 a6 3f f2 1f a6 37 d1 f8 c4 bf
       0.04423689806078771 -0.16384330003006614
0000b0 02 ec 7a 14 0b 31 a3 3f b4 07 a3 54 4b a8 ba 3f
       0.03748354554178236 0.10413046661690722
0000c0 27 7c 69 23 fa 43 8c 3f ad 3f a5 a5 a0 d4 c1 3f
       0.013801531034173987 0.13930137718352623
0000d0 30 29 c0 24 b7 7f c3 bf 88 a6 40 55 27 ec c3 3f
       -0.15233506483520776 0.1556443372986005
0000e0 b3 ec 9c 71 16 29 b8 bf 1b f3 8c 7e 7b 6b 99 bf
       -0.09437694810633239 -0.02482407531646223
0000f0 78 3c c6 ef 28 6e 92 3f 5b 9d 1d 08 e1 6e b7 3f
       0.017998351702371157 0.091535629731529
000100 c4 65 ff 26 d2 66 ae bf bd d3 b3 a5 4e f9 c6 3f
       -0.05937821126981249 0.17948325243892596
000110 3e 1f e1 95 ac d7 ac 3f 51 da 74 a7 f1 63 c8 bf
       0.05633296327192604 -0.19055004765114572
000120 ef e1 db d4 ea 9c c7 bf d5 4c e0 91 7f 17 c4 3f
       -0.18447623628141183 0.15696711180553416
000130 05 2e f8 bc 0d 60 9e bf e9 8a 14 16 ec 2d b1 bf
       -0.029663290652065317 -0.06710696734493705
000140 20 d3 fc c0 33 78 b1 bf 48 68 86 88 6c be a2 bf
       -0.06824038945780986 -0.036609069505360525
000150 2a 6a 42 2b 49 05 80 bf 6a e9 03 7f 31 36 c8 bf
       -0.007822581894562825 -0.18915384962003695
000160 1f 9a 76 c6 80 ab c2 bf 62 c4 3a cc 8b 4e 93 3f
       -0.14585885706510823 0.018854317035849617
000170 f5 da f4 fc 06 c3 ac bf 1a 23 33 09 19 7a 9c 3f
       -0.056175440195536476 0.02780951613093228
000180 c4 d4 47 d1 de cb b0 3f 26 59 0a 4f c9 54 42 3f
       0.06561081513776218 0.000559423728264706
000190 d3 5e 95 92 ab ee c5 bf 4e 36 87 66 d4 24 c1 3f
       -0.17134613664051432 0.1339364529252855
0001a0 eb ed f8 97 d8 87 b5 bf 58 7f 95 b0 5f 18 c1 bf
       -0.08410409651053612 -0.13355632898582814
0001b0 6f 03 3d 6a bd 02 b4 3f 92 74 bd 9b 90 f0 b2 3f
       0.07816680759152715 0.07398322870490606
0001c0 6b 79 16 06 e6 44 b7 bf 4a a5 0e 4c 06 53 b6 3f
       -0.09089505814197245 0.08720435482850522
0001d0 22 10 3a 51 7c e1 bb bf 89 af a8 04 ea 7e bd 3f
       -0.10890938742710479 0.11521780599349375
0001e0 2a 7c 99 b5 d0 9f a6 bf a4 3e 8c 58 e2 a2 a3 3f
       -0.044188043754495546 0.03835208254724634
0001f0 7f eb 3e 05 c5 d4 a1 3f 47 7e e2 12 20 6f 73 3f
       0.034826428308824646 0.0047446492082197705
000200 3f 5d 34 9d d5 16 b4 bf 00 63 c0 ea a4 f4 94 3f
       -0.07847342575074821 0.02046449358758462
000210 27 9a 8c 07 8b b1 be 3f 55 4e a5 8b be 88 c1 bf
       0.1198965924673777 -0.13698560541762342
000220 24 76 04 f5 78 e7 b3 bf 66 05 ad 04 5a ac c4 bf
       -0.07775073987837594 -0.16150975445092824
000230 3f 1c 96 81 d5 86 b5 bf f7 b3 68 7f 3f 89 8e 3f
       -0.08408865369538975 0.014910217357362738
000240 27 e5 9b 11 9c d5 b6 bf 30 1f b0 84 08 08 c7 bf
       -0.0891969244948042 -0.17993265608697007
000250 19 10 4c f6 c9 56 b7 3f 4e f7 85 f0 90 f0 b9 3f
       0.09116804373849198 0.10132699844504353
000260 0e 29 d2 c2 c7 a1 97 bf d1 6d ab 6c d9 6f 80 bf
       -0.023078080430914354 -0.008025835636934627
000270 1b 25 6d f0 b1 f8 c6 3f 0b b5 53 20 60 fb c8 3f
       0.17946457137649294 0.19517137125459558
000280 5e c8 47 9a 6d b5 a4 3f 97 f3 1b 1d 90 86 b1 3f
       0.040446686823899056 0.06845951758073308
000290 71 1c dc b0 bd c0 b8 3f eb cd a1 2f 73 d0 c3 bf
       0.09669099395624571 -0.15479888749869927
0002a0 49 87 f4 15 8e a9 7f bf 5c 31 94 a1 ad fb ad 3f
       -0.007730059645185091 0.05856077763937392
0002b0 d9 ab 0f b1 f5 7e c6 3f 91 2a b2 9f 26 99 c3 bf
       0.1757495035702437 -0.15311129377035518
0002c0 5c da 6d 89 ec 30 bc 3f ec 52 4e f0 2a 09 c7 3f
       0.11012152056887586 0.17996727689446546
0002d0 b4 a6 44 fa 49 fc c8 bf 4b 06 43 db b6 aa c8 bf
       -0.1951992485058348 -0.19270978647368717
0002e0 27 fd 8b 0d d8 25 a4 3f 45 45 74 67 4d 9b a9 bf
       0.03935122647635075 -0.05001298797481949
0002f0 6e 3f 84 9c b3 0a c9 3f 58 b5 fb 27 78 21 c3 bf
       0.1956390871277977 -0.14945890381151616
000300 6e 55 ba d9 31 58 c7 bf a0 71 a6 96 1e 8d 89 3f
       -0.18237898951762638 0.012476195309141513
000310 c6 53 55 8c 2e f4 a4 bf 50 e6 16 27 37 26 b1 3f
       -0.040925459509402226 0.06698937134105987
000320 23 64 ea 28 72 1c ac 3f fd 24 21 cf 2f e5 c6 bf
       0.05490452527482883 -0.17886922467940983
000330 86 ec 2a 96 5d 3a b3 bf 0e 99 9f 7c 66 c8 b1 3f
       -0.07510933796122474 0.06946411650242032
000340 34 d6 b8 5c 1e 30 af 3f 1e 59 3f b0 66 63 c0 bf
       0.06091399080143525 -0.1280334816535253
000350 47 cd b8 b6 dd 23 af 3f e6 c0 84 ad 31 5a c3 3f
       0.06082051139346816 0.15119000408731792
000360 2f 47 0e 11 99 cc b8 3f 5c d6 01 94 55 d0 bb bf
       0.0968719164505074 -0.10864767898041222
000370 42 9a 10 98 90 96 ba 3f 67 65 d4 a1 f8 fd 80 bf
       0.10385993683358044 -0.008296911657952944
000380 5c 73 c9 47 f6 74 c2 3f 4f a7 f8 e8 1b a0 c3 3f
       0.14419439797611744 0.1533236396365347
000390 73 6c 0d d3 cf 13 ae bf bb db e4 a5 a0 2c c1 bf
       -0.05874490214656527 -0.1341744241742314
0003a0 ba e5 69 36 c2 6a b1 bf 80 3e 26 19 f2 43 c2 bf
       -0.06803525761087928 -0.14269853809354416
0003b0 a9 04 6a 25 9b a7 bd 3f d1 53 64 ce c0 0b a3 3f
       0.1158387152045345 0.03719904441292211
0003c0 cf c7 a8 cc eb 74 c3 bf 8c f4 8c 81 f8 fa ab bf
       -0.152005648547457 -0.054649129690440196
0003d0 e6 13 a6 5b 2c 60 c8 3f 8a 9a 77 9c eb 03 b9 3f
       0.190434975386011 0.09771606988906903
0003e0 99 e0 c2 41 46 3a a0 bf
       -0.03169459870099551

res_blocks.1.conv1.bias f8 [5]
000000 86 90 3a c8 66 11 c8 bf fb 37 e6 ae 12 5f c4 3f
       -0.18803105141444493 0.15915139713291623
000010 34 c3 bf de b7 7c b1 3f 7c ea ea 92 d9 8e c8 bf
       0.06830929935655378 -0.1918594329234401
000020 13 bf bc bb 94 5f 75 bf
       -0.0052181062599599036

res_blocks.1.conv2.weight f8 [5, 5, 5]
000000 1a 75 68 3d eb 19 bf 3f 1f 4d 4f 00 b7 f2 b1 bf
       0.12148924111575746 -0.07010978467524297
000010 aa 2e f1 7f fe 52 c2 bf 72 60 84 b8 94 83 c1 bf
       -0.1431577801434874 -0.13682803163169727
000020 0c de 09 4b b1 3e c6 3f 1b 7b ff be 39 9b be bf
       0.17378822483054568 -0.1195560542396205
000030 7d 15 8d 6b 4d d3 c7 3f 53 9d b0 e7 6d 7b c1 3f
       0.18613593818205834 0.1365792638109534
000040 a1 e4 23 a2 1a 23 bf 3f be 38 ef 3a 7b ce c8 bf
       0.1216293950891605 -0.19380131127986105
000050 78 14 8e 7e 77 22 a1 bf 29 13 75 e6 77 a9 b6 3f
       -0.03346608562336767 0.08852338196181776
000060 e7 99 c2 19 7d e3 c6 3f 08 64 3a fb a0 10 b3 bf
       0.17881740339107852 -0.0744724858617617
000070 96 72 3d 04 11 f3 c3 bf a7 96 f2 b1 3f 33 c6 3f
       -0.15585530001671505 0.17343898953293044
000080 1c c2 bb 49 09 76 c8 bf d8 3e 21 eb 77 73 c6 3f
       -0.19110218143716018 0.17539881688070724
000090 c4 6d 82 46 16 14 c7 bf d1 4d f7 93 e1 60 a3 3f
       -0.18030050700040878 0.037848519623050365
0000a0 f9 39 92 31 03 9e c8 bf ee d9 bf ab 2a 00 c3 bf
       -0.1923221580550061 -0.14844258676721672
0000b0 d2 46 39 70 54 a9 a8 bf 8a b5 e7 33 1a 85 c0 3f
       -0.04816688413542426 0.12906196150235544
0000c0 be c5 35 f9 51 09 b5 3f 06 1d bc 87 e9 e6 ba 3f
       0.08217346510152532 0.10508594096983268
0000d0 4d 03 0c 96 0c 2f b8 3f b7 1c 86 99 39 e8 a0 bf
       0.09446791327719702 -0.03302173613615749
0000e0 c1 f3 1a cf e0 b4 c2 3f 26 ae 1a 37 ea 70 c3 bf
       0.14614496338427155 -0.1518833893836568
0000f0 68 c9 c9 1d fb ed b1 3f 80 b6 6c ef f4 77 b9 3f
       0.07003755070926376 0.09948664517716033
000100 6b 52 0a b3 34 0a 6f bf d5 c9 f7 29 c4 e0 9c 3f
       -0.0037890462193195715 0.028201165257948652
000110 ea f0 12 48 0c 5c be 3f 0e fd 34 80 00 2f b1 bf
       0.11859204063052045 -0.06712344293645264
000120 17 e3 ef 48 eb 26 c8 bf 94 c4 44 31 1c 7d c1 bf
       -0.18868771611575916 -0.13663055806822355
000130 35 94 8e 93 17 37 b4 3f 7a 19 2d 20 e2 ca 9e 3f
       0.07896563866104674 0.030070813382985652
000140 01 b8 36 16 fb 76 9d bf 7f ad d2 63 db 97 c2 3f
       -0.028774188261813553 0.1452593076149746
000150 67 92 1b f6 fa 8d b4 bf 0d c9 5d 7d 6d 5a ba bf
       -0.08029144772042117 -0.10294231711103326
000160 8f ad 4e bb b0 66 c0 3f 16 ad f2 a7 cf 5c a8 3f
       0.12813386102548605 0.04758309292932432
000170 83 62 32 61 17 ac c5 3f de 2c f4 bf 8a 42 a1 bf
       0.16931431051195397 -0.033710800105916525
000180 46 46 b6 67 1e 0b bc bf c5 d9 34 53 72 25 8b bf
       -0.10954465896636476 -0.013255017437228464
000190 b8 5c 0c 22 d2 a8 c9 bf 7e f2 d0 ef 7b c4 ab bf
       -0.2004645029307761 -0.054233429932058805
0001a0 37 20 ee c8 ba 21 b9 bf 27 b5 c1 12 82 65 a4 3f
       -0.09817092328569364 0.03983694533313047
0001b0 8a 29 91 bc 43 f2 b5 3f 9e 7e c9 06 3b dd c8 bf
       0.08572791436851027 -0.19425142127419276
0001c0 03 e4 66 4b e1 fe c7 3f 39 b4 49 0f af 07 c7 3f
       0.1874658220456525 0.17992199179153248
0001d0 37 8d 69 7e e3 82 c3 3f b8 c8 73 fa b0 39 c3 3f
       0.1524319045302975 0.15019809941401774
0001e0 25 a0 af 64 8b bf 99 3f 9a eb 62 f1 56 5e c8 bf
       0.02514474679983904 -0.19037901674695662
0001f0 0a 19 2c f3 8f 18 c5 bf 69 8a 3d 64 cb 85 b1 3f
       -0.16481208203931202 0.06844779202723718
000200 ac 2c 48 25 0d dd 8b 3f 6b f8 d1 05 7c ff 73 bf
       0.01360521574044634 -0.004882320846375614
000210 a0 c4 50 af ab a9 bc 3f fa fa cd 88 63 0b af bf
       0.11196396856463986 -0.06063376469591293
000220 48 fa ca cb af b7 b5 bf f5 e1 95 4b 91 36 79 bf
       -0.08483408666050096 -0.0061555553050926986
000230 53 46 3e 02 41 54 ba 3f fd 54 de 10 41 d0 86 bf
       0.1028481131054602 -0.011139400794301308
000240 ae 58 12 fa 07 81 c5 bf b6 5c 87 56 fd 88 c0 3f
       -0.1680002184918456 0.12918059086834938
000250 54 59 21 cf 2b 3a b8 3f 1d c3 3a d1 01 9f b2 3f
       0.09463762099162426 0.07273875578063067
000260 94 06 04 d8 01 d4 a6 bf ad 67 13 c1 20 01 a9 bf
       -0.04458623659048758 -0.048836730545829134
000270 31 95 b7 a5 b5 a6 c5 3f 4e b7 fe c8 cc 41 c1 3f
       0.16915007201820623 0.1348205548687766
000280 c0 04 9f ae e7 aa bd 3f 0f 7e aa b6 c6 20 c3 bf
       0.11588905347072664 -0.14943775099980924
000290 14 50 29 7c d8 28 c7 3f b2 29 85 f1 63 9c c8 3f
       0.18093401014869015 0.19227265637375762
0002a0 dd 7f 93 59 54 9c 8e bf 37 33 26 7e b6 4a c8 3f
       -0.01494661234249855 0.18978005561475594
0002b0 83 4c a1 e6 22 8c a5 bf 5d 42 88 47 42 5d a0 3f
       -0.04208478036221044 0.03196150897213521
0002c0 1b 6b f7 3b 20 cb bb 3f d7 ec 27 d4 b3 27 c9 3f
       0.108568205490354 0.19652412280252093
0002d0 de 4d b2 9e 89 05 c1 bf f0 71 cf 62 87 ba ab 3f
       -0.13298149346211025 0.05415747719937147
0002e0 17 46 d6 48 6c 46 c6 bf 78 1d b0 25 98 3b c8 bf
       -0.17402413898939592 -0.18931867447120587
0002f0 70 b7 d4 e3 e3 80 c4 bf 9a bd 85 c3 73 ed a5 bf
       -0.1601834166007694 -0.04282724153278679
000300 9f fa 13 8f 5a 84 c5 bf 13 b0 90 6f 6b 69 af 3f
       -0.16810161577446522 0.061351163262173845
000310 c8 1e 8e a8 26 19 c6 3f 5a a2 be 12 da 72 af bf
       0.1726425478957394 -0.0614231250650092
000320 75 c3 94 d4 7c 7b 89 bf aa ec 06 7a 11 e9 c2 bf
       -0.012442565190754465 -0.14773767908431995
000330 05 be f9 ec 33 46 c6 bf 67 8f 54 9b 33 97 ac 3f
       -0.17401742049285943 0.05584107657548892
000340 e8 38 18 a2 e0 3f b2 bf 62 fd 90 14 0a 89 c4 bf
       -0.0712871928919615 -0.16043210987298112
000350 9a 9a 5c 5d cc d2 b6 bf 34 31 93 d0 75 1c bc 3f
       -0.08915402678813181 0.10980926839983313
000360 6e 4d 4f 32 f6 44 a2 3f 74 0e 8e f0 71 e9 c5 3f
       0.03568238605626105 0.17118667836995238
000370 b7 a0 0f 95 87 3a 8c 3f c4 44 41 ff 2c 96 89 3f
       0.013783511387331122 0.012493468799365089
000380 be 7c 76 be 5a 95 c9 bf e9 60 6b 1d af 33 be bf
       -0.19987043666785625 -0.11797613590477209
000390 4c d8 3c 6e 16 22 ba bf b1 d4 6f 8d f2 41 b6 bf
       -0.10208263579701898 -0.08694377854392844
0003a0 85 b2 fa 7d e5 85 b9 bf 97 9c 4e be 04 9a ba 3f
       -0.09969934774080443 0.1039126362435233
0003b0 5a 85 6c a0 25 64 92 bf 01 38 4f 0e 6e 4f b7 3f
       -0.017960155407427215 0.09105575417854085
0003c0 25 3e 08 dc ea b2 b5 bf fb dd 00 60 41 3b bb 3f
       -0.08476131317024078 0.10637291520912832
0003d0 f0 56 a6 21 37 17 85 3f 20 e6 fe d9 11 a6 aa 3f
       0.010298186029824546 0.05204826150970754
0003e0 3d 5e e5 f0 b3 5d c7 bf
       -0.18254708540438172

res_blocks.1.conv2.bias f8 [5]
000000 2f 19 e6 4b 59 e9 a0 bf b9 99 8f c7 77 30 b7 bf
       -0.03303031016825952 -0.09058331129163023
000010 93 1e 2b 5f 5a 3c 87 3f ce 73 72 1d 74 2f af 3f
       0.011345582989988478 0.060908917040456964
000020 68 ba fb 63 b5 8e 93 3f
       0.01909907744168962

res_blocks.2.conv1.weight f8 [5, 5, 5]
000000 b5 0b 6b ff 76 37 c3 3f 63 8a 49 fc 7f 81 58 3f
       0.1501301524313853 0.0014957189424868115
000010 3a c3 87 91 54 fa 86 bf f8 cf 63 0b 61 df c4 bf
       -0.011219654742463104 -0.16306698852679324
000020 eb 62 53 ef de 06 c6 3f 7b 64 2c 6e 62 3a bb 3f
       0.17208468137575691 0.10635962667255854
000030 7d 05 5f 50 b8 02 af 3f e1 28 d9 d6 aa 4d 92 bf
       0.06056762677281833 -0.01787440239267191
000040 27 da 1f e9 e1 bf b1 3f 8c c7 54 6c c0 a6 b7 3f
       0.0693341440345213 0.09238817829898788
000050 61 e5 95 5f 95 c1 b2 bf d6 43 70 84 d7 ec 90 3f
       -0.07326634963637481 0.01652848001328152
000060 f9 58 0e 62 89 90 87 3f cc 8e 34 ea 51 a8 b3 bf
       0.01150615053647329 -0.07678710906889846
000070 db 94 ab f6 84 05 c7 bf 05 ff b2 b9 a6 71 ae 3f
       -0.17985593838162725 0.05946084038578018
000080 2a 2a 5a 1d d6 fb b3 3f 6c dd cb a1 4d 13 ab 3f
       0.07806146828276242 0.05288164711049145
000090 10 b1 7b 73 0e 52 b7 bf be 92 ae 21 90 5c af 3f
       -0.09109583205617278 0.061253074752391154
0000a0 fa a6 83 59 1d e3 9b 3f b7 66 4e 3d 3f cc c2 bf
       0.027233561123387574 -0.14685812467069123
0000b0 ae 59 16 a1 cc 51 a6 3f 5a db f7 cf 76 90 c8 3f
       0.0435928293838289 0.19190869478890243
0000c0 c7 6d 48 ed 2e ad ba 3f 54 62 2c 6b cd 05 98 bf
       0.10420506756820834 -0.023459634462684356
0000d0 40 3b 86 c9 40 8f c8 3f 24 10 d4 42 5c c7 a7 3f
       0.19187173690849058 0.04644287410522477
0000e0 fc 94 e8 01 f1 69 bb bf 89 5f 39 86 68 8b ad bf
       -0.10708528801531608 -0.0577042259071155
0000f0 f1 75 c8 15 c1 21 b7 3f 4e 09 93 af 17 10 b5 3f
       0.09035879880726562 0.08227680241092125
000100 6b c2 d1 bd 47 36 68 3f aa 96 35 b8 42 ce c8 bf
       0.0029555703354662752 -0.1937945746860142
000110 09 6d 46 86 db c0 ab bf 96 c5 90 5d 13 b8 c3 bf
       -0.05420576109028203 -0.1540550429213396
000120 eb f8 bb a9 36 55 c7 3f a0 bd 28 28 39 65 92 bf
       0.18228801048093798 -0.01796426112758598
000130 44 ec fb e1 a2 34 b2 3f 64 fb c8 06 4f ae c9 3f
       0.07111566559972099 0.20063197928717635
000140 8c 25 23 46 23 6c b1 bf ac 29 5d 45 43 80 b7 3f
       -0.0680563017114279 0.09180088466124542
000150 15 2d 11 82 76 1a c7 3f f0 cf 1f b2 15 90 ba bf
       0.1804950842946275 -0.10376105879532793
000160 1c 3b 73 04 58 2f c8 3f 15 67 21 75 2e c5 c2 bf
       0.1889448186616044 -0.14664250106107404
000170 0d d7 38 df 8c 48 c0 bf d5 ba dc 5a 4c 55 c8 bf
       -0.1272140588713956 -0.1901030963576519
000180 bf 90 45 a9 ee ac 8c 3f 6f e1 88 35 4b ae ae 3f
       0.014001717129481837 0.059923506054874724
000190 13 63 19 88 9c 35 c0 3f 67 56 43 9a 98 13 c0 3f
       0.1266360916659087 0.12559802563071118
0001a0 b7 f2 79 6a 0d ad a8 3f 55 a2 44 94 ca 71 a9 3f
       0.04819528507957698 0.049696283911832374
0001b0 d1 8f 1b cb 91 43 b0 bf 71 aa aa 08 dd fb 95 3f
       -0.06353102883036789 0.02146859517476191
0001c0 e7 9a 82 cf 15 54 a6 3f 1c 76 45 f2 02 fc a0 bf
       0.04361026914675908 -0.03317269523061503
0001d0 17 6a 27 12 32 4c bd bf 2e 4c b8 58 38 da b1 bf
       -0.11444390242778756 -0.06973602453244673
0001e0 c6 d4 28 7b 8b 81 b6 3f 95 9c 77 df 87 ef a3 bf
       0.08791419750999116 -0.03893684962150094
0001f0 2a 53 75 4e ee 0c c2 bf f6 39 bf fb 51 77 a7 3f
       -0.14101961928340617 0.045832216244537635
000200 37 9c d1 24 89 35 b4 3f 0a fe 8b bc f1 2c af bf
       0.07894189022918928 -0.060889772668812084
000210 fe 46 b5 46 6e 21 81 3f 84 35 f4 a1 28 eb b0 3f
       0.00836454537662545 0.06608823732331898
000220 27 65 28 40 ea 14 80 bf cf 05 3f 1b a0 4f c6 bf
       -0.007852392275753474 -0.1743049748456955
000230 57 b8 c4 92 0a e1 c1 3f bf ef aa 4b 50 93 bd bf
       0.1396802155154002 -0.11552907798153365
000240 23 fa 29 d3 94 8d b8 3f d5 33 2b 48 5c ec b8 3f
       0.09591035991068302 0.0973565746491681
000250 a5 8d e0 f2 f7 51 9e bf ea cc f0 dc 36 88 b5 3f
       -0.029609560202641955 0.0841097154050662
000260 ea 8d d3 76 bf 64 8d 3f 62 3b 04 90 3c 4c a2 3f
       0.014352317632478202 0.03573788888944908
000270 c7 dc 37 87 8a a9 c6 bf b5 2d f5 64 0d d6 92 bf
       -0.17704898455096993 -0.018394669806452508
000280 4c 21 93 56 ed c6 c7 bf e5 5e cd 7d fa 1d a0 bf
       -0.18575827338487227 -0.031478717667310176
000290 8f 10 17 cf 6f b0 c3 3f 39 94 79 91 ed 45 b8 3f
       0.15382192241498102 0.09481701661714305
0002a0 a9 e3 e8 51 20 c8 a8 bf a8 60 a3 3e c2 88 bd 3f
       -0.048401842116113265 0.11536802319767736
0002b0 6b c1 4b 30 65 3a b4 3f ef f4 d1 bf e6 a1 bb 3f
       0.07901604107951747 0.10793916876896835
0002c0 c5 06 83 6d 64 2e 93 bf fa a2 de b7 ff 2a b9 bf
       -0.01873166006476514 -0.09831236113553735
0002d0 85 24 3a 88 a7 53 a3 bf 40 b8 47 30 03 33 c4 3f
       -0.03774760759285648 0.15780677659444287
0002e0 9b b6 5d fd a1 31 c9 3f b8 a3 e5 2d 20 95 c9 3f
       0.19682717200651187 0.19986345521036042
0002f0 1b 41 33 4e 06 3e c9 3f 1d 3a 61 25 b1 bb b0 3f
       0.19720534151429878 0.065363952279974
000300 24 24 c1 32 78 8c bc 3f 85 49 63 e7 f5 c6 c0 bf
       0.1115183948433161 -0.13107179449304965
000310 12 1b 3f cb 10 a9 87 3f 02 4e a9 13 02 28 be 3f
       0.011552935793486738 0.11779797534955352
000320 65 07 d8 1b 4d 39 1a bf c7 00 0c 8b a6 69 b6 bf
       -0.00010003598341515108 -0.08754959959697138
000330 fc 77 7b 1d d8 25 a8 3f 2b bb bb 3e e6 9c b0 bf
       0.047163728331483384 -0.06489409476828871
000340 fb c8 9a e4 29 59 c4 3f 7f 41 75 31 6d 71 89 bf
       0.1589710584863225 -0.012423375198211016
000350 5a bb c3 aa cd 53 82 bf 2e 99 ea 8e 03 bd c4 bf
       -0.008948904775449119 -0.16201824644412838
000360 15 31 ee d1 36 7c be bf 21 fa 4f 94 5f 24 c5 3f
       -0.11908285737280651 0.16517252675835528
000370 ef b3 21 2b 6d b2 73 3f d1 e2 0c e0 e6 2b c0 3f
       0.004808832587610986 0.12633977832753954
000380 f6 bb e6 b3 d1 20 73 bf 58 24 82 15 35 fa c4 bf
       -0.0046699706567059265 -0.16388572263921009
000390 eb f3 31 db d4 59 c9 bf 26 db ce 27 74 42 c3 bf
       -0.1980539388931953 -0.15046550697089706
0003a0 da b0 b9 75 6f 67 c4 bf 6d 2d 9d 49 f8 3d c1 3f
       -0.1594065975981554 0.13470367044861167
0003b0 5b 33 87 6a e9 72 bd 3f a9 c3 4e bc 80 2c ad 3f
       0.11503466463837013 0.056980154978538984
0003c0 88 11 c1 ec d6 60 c1 3f e7 a5 6e 12 0e ce b9 3f
       0.1357678085352172 0.10080039930348726
0003d0 e9 b9 a4 7c cb 08 ba bf eb fa fa e8 56 03 c0 3f
       -0.10169669907620683 0.12510191322322525
0003e0 f1 8c bc 06 f7 1b b0 3f
       0.06292671122041661

res_blocks.2.conv1.bias f8 [5]
000000 41 88 6a ab e0 8f c4 bf 2c f1 85 12 8c dd bd bf
       -0.16064079637459552 -0.11666179134585225
000010 fa ec 3a 56 9f f6 81 3f 8e 45 49 af 70 04 80 bf
       0.00877117616561528 -0.007820968961058463
000020 a4 04 4e 0c c9 02 c7 3f
       0.1797725019532993

res_blocks.2.conv2.weight f8 [5, 5, 5]
000000 f3 53 9e 56 6e 63 9e 3f 00 00 00 40 d5 0e c6 bf
       0.02967617419888664 -0.1723276674747467
000010 de 5e b1 2a 85 62 b8 3f 79 75 58 28 81 69 c3 bf
       0.09525329868608476 -0.1516572424888343
000020 2d 0c ac c0 b4 a2 a3 3f 12 99 16 8e d0 4e b0 3f
       0.03835072376207225 0.06370261639549238
000030 c0 35 63 55 ce 59 c8 3f 79 1e 76 6f 08 ed 99 3f
       0.19024066132844375 0.025318271449150196
000040 5b f5 71 c3 c4 90 b4 3f dc 47 3c 27 7c 42 b0 bf
       0.08033399364099607 -0.06351448018929723
000050 79 6f db 2d 89 d2 c3 bf 02 95 18 46 aa 51 a3 bf
       -0.15486254443282713 -0.037732430512088314
000060 01 6e 85 88 e6 67 c4 bf 11 86 6c 26 18 a1 b5 3f
       -0.15942079225611397 0.0844893544968033
000070 26 f1 69 69 c2 77 bb bf f2 48 65 eb ab 7d c4 3f
       -0.10729613374309518 0.16008519166877694
000080 2f fb ab 02 e4 82 c2 3f 8d fb 23 27 f1 cd b3 bf
       0.1446194661184221 -0.07736117559032447
000090 64 d6 ee 0d 15 bc bb bf 54 9d 25 75 6d 6d a6 bf
       -0.10833865728531006 -0.043803616094744285
0000a0 5d d2 5c 19 0e bd ae 3f d6 7b e8 96 33 b4 74 bf
       0.06003612575151316 -0.005054666062760801
0000b0 bf d1 2b ca a2 d0 c4 3f 87 f6 2a d1 b8 c3 a5 3f
       0.16261706229819414 0.04250886491125266
0000c0 3f a1 06 9f 74 31 c1 3f d4 45 06 a0 44 4e c0 3f
       0.13432176365791723 0.12738855184265552
0000d0 22 1b f4 2c c0 6c bb 3f 32 3d 84 7d 88 da 8e bf
       0.1071281537771083 -0.015065256433926952
0000e0 52 96 ed 2a d1 0e c3 bf 1b 50 88 ca d6 1d b4 bf
       -0.14888968082520876 -0.07858030743256032
0000f0 78 45 0f 7c e2 d5 b4 3f 48 84 fc 19 80 f1 c1 3f
       0.08138862160492077 0.14018250721804493
000100 b7 2c 8d 39 9c f7 b6 bf ca 4b 30 ce 9f f2 b6 bf
       -0.08971573262276676 -0.08963965209868188
000110 8e 4d db e4 85 6e c0 3f 12 b6 b3 6d 23 d8 b2 bf
       0.1283728949989435 -0.07361051014205369
000120 85 fe 42 55 c8 9e c5 3f 79 c9 4b 78 7e 61 b8 3f
       0.16890815890473135 0.09523764073290931
000130 b3 c5 45 32 e5 e8 c4 bf 9c fd 79 70 eb bd c4 bf
       -0.1633574004622865 -0.16204588882463333
000140 81 2e 79 77 c8 35 bd 3f 61 e6 b9 ca b6 1f c3 3f
       0.11410191456632825 0.14940533541430326
000150 d1 74 ef ac 1f 3d a8 3f 68 bb 18 66 7f de c5 bf
       0.04734133707072775 -0.1708525894659616
000160 98 09 8f 2b 4f 18 b3 3f d7 c5 4b 28 35 4a bb 3f
       0.07458967984624676 0.10660106881893881
000170 fc 9a 41 89 c0 8a 93 bf f4 8d 14 4c 24 43 be 3f
       -0.019083984734971957 0.11821200234822254
000180 55 0b 18 70 07 49 c6 bf 5c 13 58 52 ab 88 c9 bf
       -0.1741036698659523 -0.19948331375794737
000190 a6 cd 1e dc ab ea bc 3f 79 0d 9c e5 95 71 96 bf
       0.11295580028563865 -0.021917669429070117
0001a0 3d 79 1e 36 99 d5 b3 3f bd 79 e5 ac ee 07 be 3f
       0.07747800418153346 0.11730853768447154
0001b0 9b 5f f6 88 d7 b4 c3 bf 2b 61 25 7f eb 6f b7 bf
       -0.1539563578378392 -0.09155151228094797
0001c0 43 87 82 f2 63 b5 c5 bf f2 14 0c 65 35 eb b6 bf
       -0.16959809628775177 -0.08952649800274395
0001d0 6d 08 d1 7c 64 6b 8e bf ba ce f5 1e 97 35 b2 bf
       -0.014853272494409897 -0.07113022333015354
0001e0 b9 28 15 a9 fa 14 c8 3f da 53 37 54 9f 3b 41 bf
       0.18814023262013338 -0.0005259063695414138
0001f0 ff d6 66 b1 e0 86 ba bf 92 72 30 16 2a 44 c2 bf
       -0.1036205704793609 -0.14270521243533502
000200 7b 22 48 70 fa f2 c1 bf 37 94 6d f9 87 b4 c8 3f
       -0.1402276085139141 0.19300937346557287
000210 0f 5d fc 21 4c 27 bf bf 32 75 74 cd cb cc 98 3f
       -0.12169338063937495 0.024218735136959775
000220 31 2f e6 c1 46 33 ba 3f 91 e1 89 0a 41 a9 c3 bf
       0.10234491571298744 -0.15360272421436297
000230 13 6e 96 9d 06 1a 8b 3f 09 c1 27 70 ec 8a b8 3f
       0.013233234104339997 0.09586980569998017
000240 60 a4 dc 29 55 86 7e 3f 6a 13 0b 99 73 67 aa 3f
       0.007452328367244382 0.05157052272037428
000250 aa 38 16 6d a2 05 be 3f d2 00 74 0c d5 5c c2 3f
       0.11727347529651647 0.14345801456511836
000260 73 59 5f bd e4 68 a2 bf b1 bd 64 ad bc e3 c6 bf
       -0.03595652400661011 -0.17882498232346003
000270 dc 9f bb f1 0d 70 c0 bf 33 0a 27 a3 86 54 c4 3f
       -0.1284196310364213 0.1588295265811027
000280 26 47 f1 ff 11 31 c7 3f 58 67 ba a3 d8 69 c5 3f
       0.1811850070685576 0.16729267115152413
000290 70 e2 27 b3 8f 18 b0 3f b7 a1 b5 31 48 c7 a8 bf
       0.06287477611466286 -0.04839540106587797
0002a0 16 b3 ac 5b 9e 9e c7 3f 98 8e 2f 93 fa 0e c4 3f
       0.18452815510081483 0.15670711695485262
0002b0 96 3d ab f3 27 96 bc 3f c1 b9 20 bf fa 9d b8 3f
       0.11166619967411004 0.09616057554442305
0002c0 49 48 52 bd 80 fa c2 bf 90 f3 e0 0a c1 b4 c1 bf
       -0.14826974147996655 -0.13832867652118042
0002d0 4c 91 38 f4 91 61 b7 3f 5e 59 e1 03 96 00 a6 bf
       0.09133255207467988 -0.04297322080008102
0002e0 05 05 90 f2 ff 8d b2 3f 99 8f 82 b3 22 7f c1 bf
       0.07247924491823106 -0.1366923691285791
0002f0 33 2e 42 5e 57 72 70 3f 39 80 ff 2a e1 d2 b3 3f
       0.004015294343968234 0.07743651675946318
000300 db 53 73 2e b1 26 b7 bf 3b f3 1d 4f 06 4a b2 bf
       -0.09043414482159966 -0.07144202643935398
000310 80 7e 90 c6 ea 15 c7 bf 97 67 f7 8c 1c 22 93 3f
       -0.18035635657814808 0.01868481264487051
000320 00 00 00 60 b2 e9 c0 3f 00 00 00 e0 18 6f a9 3f
       0.13213185966014862 0.049675729125738144
000330 00 00 00 e0 ba 86 be bf 00 00 00 60 58 32 bc bf
       -0.1192433163523674 -0.11014320701360703
000340 00 00 00 40 03 0a 8d bf 00 00 00 e0 d8 8f b6 3f
       -0.014179253950715065 0.08813243359327316
000350 00 00 00 e0 4c 49 77 3f 00 00 00 40 83 94 9d bf
       0.0056851389817893505 -0.028886843472719193
000360 00 00 00 40 71 e6 b1 bf 00 00 00 00 78 25 c7 bf
       -0.06992252171039581 -0.1808309555053711
000370 00 00 00 60 16 a1 a0 3f 00 00 00 00 a4 b1 b2 bf
       0.032478999346494675 -0.07302308082580566
000380 00 00 00 60 56 c5 a5 3f 00 00 00 00 6a db c2 3f
       0.04252118989825249 0.14732098579406738
000390 00 00 00 60 2e 17 b1 bf 00 00 00 60 58 cb b3 3f
       -0.06675996631383896 0.07732155174016953
0003a0 00 00 00 60 46 55 7f bf 00 00 00 40 c3 0d bb 3f
       -0.0076496838591992855 0.1056787520647049
0003b0 00 00 00 00 b3 be c1 3f 00 00 00 e0 4c ae 54 3f
       0.1386321783065796 0.0012622595531865954
0003c0 00 00 00 a0 c7 8a c4 bf 00 00 00 a0 9d 42 b5 3f
       -0.16048522293567657 0.08304772526025772
0003d0 00 00 00 e0 5c 36 b7 bf 00 00 00 e0 94 9a 90 bf
       -0.09067326039075851 -0.016214681789278984
0003e0 00 00 00 a0 1e 62 c5 bf
       -0.1670568734407425

res_blocks.2.conv2.bias f8 [5]
000000 7f 54 21 54 e3 35 c3 bf ae ba 30 29 48 25 b4 3f
       -0.1500820313255282 0.07869387632011168
000010 c3 2f 98 d2 51 53 90 3f 68 37 83 eb 71 27 b0 bf
       0.015942839125315588 -0.06310188293283903
000020 00 00 00 a0 25 e6 c6 bf
       -0.17889852821826935

res_blocks.3.conv1.weight f8 [5, 5, 5]
000000 89 f5 72 2c 7d 20 a6 3f 79 bd a3 15 b6 b6 c4 3f
       0.04321662108984998 0.16182590538617683
000010 b4 3e 7b 90 71 f6 b6 3f 9a ea c9 ca cb b9 c2 bf
       0.08969793107393792 -0.14629504586976766
000020 9b d1 49 5e 9a 3f b5 3f 89 7a d5 d8 19 c5 b3 bf
       0.0830017547794512 -0.07722627204700862
000030 b1 0b dc 29 c4 b7 c1 3f 80 69 c7 d2 d4 e0 9e bf
       0.13842060131000047 -0.030154538502622952
000040 75 ea f7 a0 14 64 a6 bf 7c d1 15 7d e3 b7 b1 3f
       -0.04373230423876332 0.0692121677764756
000050 8d 29 9f 3e a6 ed c8 3f c8 55 d1 48 d0 b6 ab bf
       0.1947524839182048 -0.05412913216484189
000060 ad b3 b2 02 29 cc c7 bf 51 53 17 12 b8 7a b3 3f
       -0.18591797477475094 0.07609129373242964
000070 cf ca 42 18 60 3b b9 bf b3 ea 10 93 0c ee b6 3f
       -0.09856224624926856 0.08956984129410266
000080 3d e4 84 73 73 2e a0 bf 30 35 e2 0f fc 37 ad 3f
       -0.03160439286370618 0.05706775373355766
000090 09 41 83 f2 71 b3 bc bf 99 74 c9 7f 82 25 c9 3f
       -0.11211311503143774 0.19645720710369544
0000a0 49 61 b3 1f 51 d1 b6 bf b6 4b 03 bd c1 7d bf bf
       -0.08913142227118444 -0.12301264633724326
0000b0 a2 5d 31 b2 50 7e 9b bf 4a 47 77 96 ae 68 98 bf
       -0.026849041820552373 -0.02383683007594265
0000c0 e1 2c b3 6b 99 5f a0 bf a2 cd 3a 40 26 56 c0 3f
       -0.031979364773713 0.1276290715810378
0000d0 73 74 40 e4 a0 b3 b5 bf 9e ca 01 f6 75 9a c6 3f
       -0.08477216312935969 0.1765887690740628
0000e0 c0 bd 81 e3 d5 95 b4 3f ad fb 73 65 25 32 aa bf
       0.08041130833020471 -0.05116383422318136
0000f0 e9 36 f6 fa 53 ba b3 3f d3 0e 13 3f bc 3c a5 bf
       0.07706189038273305 -0.041478998851315695
000100 2b dc f8 62 f0 ff b2 bf 8a 84 36 83 82 c3 c7 3f
       -0.07421781936942355 0.1856539860428124
000110 eb ac 5f 41 37 6c bb 3f 63 93 ad cd 46 28 a3 3f
       0.10711999269522081 0.037416660887891216
000120 54 2c 32 bf d7 6c c3 3f d8 e6 86 d1 00 0b 85 bf
       0.15175911746732373 -0.010274893182998054
000130 8c 70 50 5e 4c 18 b2 bf 0a 9a cb 8a f5 08 c0 bf
       -0.07068326284974286 -0.12527341153254695
000140 3b f5 76 9b cb e2 b2 bf b6 41 2d fd 68 dd 97 bf
       -0.07377312226795578 -0.023305550053295675
000150 ed f5 e2 5f 32 4c c1 3f bd 3b df 8c 25 32 c6 bf
       0.13513784105263885 -0.1734053552486027
000160 aa ad 83 72 3e de c3 3f f3 af e7 35 23 b6 ac 3f
       0.15521984664461047 0.05607709916134231
000170 03 d1 67 a9 e4 1a c0 bf 19 83 6c 12 a1 ae b2 3f
       -0.12582071563486616 0.0729771299343266
000180 99 cf 41 41 4e 08 b3 bf 05 18 39 fe 7c 35 c4 3f
       -0.07434548466863901 0.15788233197434934
000190 f9 d1 5e 2a fe a5 aa 3f 83 a9 91 74 5c b7 b5 3f
       0.05204767482010548 0.08482911916659046
0001a0 4b 35 29 9b 4a bb c3 bf 2c ac a6 f2 0e b4 c0 3f
       -0.15415318084925853 0.13049494598576084
0001b0 ff 6a 33 b2 7b fa b2 bf b7 2c e8 6c 62 9c c8 bf
       -0.0741345701275513 -0.19227247541161827
0001c0 ce 1d 75 5f e1 a1 b0 3f cf c4 f7 c7 8c 88 9e 3f
       0.06497009830956488 0.02981777163035276
0001d0 ae 39 84 7e 38 e3 95 3f 80 6b 16 a4 ab 2f a3 3f
       0.02137459060855356 0.037473071842405226
0001e0 51 63 0e 12 5f a7 ac bf 3a 35 b0 73 66 37 c3 3f
       -0.05596444220936426 0.15012818001597755
0001f0 29 54 3d d7 78 91 98 bf fb 80 a8 7d 4c e2 9e 3f
       -0.023992431771450527 0.030160136384552932
000200 28 f1 b0 e8 ae 47 bd bf cc c7 c7 f8 17 d4 a7 3f
       -0.11437504940926557 0.04654002105588936
000210 bc 1c 8a 6b 33 ff bf bf 1a cd 0d 09 e7 29 c6 bf
       -0.12498780608631227 -0.173153762265067
000220 bd 4f 43 11 4e 25 b2 bf ef c3 6a 29 ca 7d c6 bf
       -0.07088172837694535 -0.1757137968284321
000230 a7 3f 51 7d 50 86 bb 3f 12 d9 59 1e cc f5 a9 bf
       0.1075182252836827 -0.0507034098672411
000240 54 d2 2c a4 bb da 98 bf 58 5c 07 19 7b 18 c0 bf
       -0.02427190007729714 -0.125747096272536
000250 05 c2 35 b4 e7 19 b5 bf 5b 47 9c ee e3 a9 b4 3f
       -0.08242653035791399 0.08071732116175438
000260 cd 23 f8 98 6e 5b c7 bf 1c 62 77 df 4b e0 bf bf
       -0.182477783863105 -0.12451624112817011
000270 94 2a a4 f1 2b fe c6 bf 66 d7 77 64 c7 6a 74 bf
       -0.17963170336618772 -0.004984644772312174
000280 04 8e a9 e1 38 c5 c4 3f 48 70 64 85 a9 ce b6 3f
       0.16226874369304778 0.08909091478966602
000290 ce 5c 1b 32 6d 0d bb bf ec 77 cb a9 fb 18 c7 bf
       -0.10567362283051127 -0.18044992247354175
0002a0 98 3d 01 3b 40 f8 b0 bf b7 70 58 ff bc c3 b7 bf
       -0.06628800812290192 -0.09283047899265538
0002b0 f6 d5 8f aa f1 98 ba 3f c2 f9 2b 8d f0 5d 90 3f
       0.10389624036891817 0.015983351341668735
0002c0 63 07 2d bb 44 38 99 3f 32 19 68 f1 c9 99 bb bf
       0.02462870972090715 -0.10781538146702443
0002d0 45 c7 ed ff 45 4e c8 3f b5 5e 21 de c2 17 c6 3f
       0.18988871571087365 0.17260013433655322
0002e0 5f f7 17 55 15 b9 a3 3f 83 99 e6 62 23 83 c0 bf
       0.038521448743252355 -0.12900202111377376
0002f0 48 23 71 dc aa 6a 60 bf 40 a0 54 8a 0f 4e c6 bf
       -0.002003987992371146 -0.17425722364828466
000300 e4 90 00 fa 74 0c c6 3f af c9 ae a3 fc 30 c3 bf
       0.17225515563143923 -0.14993246071169383
000310 ea 89 07 1c ef 7f b0 bf 73 aa 8f 4e 7d 02 c0 3f
       -0.06445211824715327 0.12507597290035086
000320 2d b2 ad 0d 8c 3c b1 bf 70 51 4f 8f d8 45 c1 3f
       -0.06733012517879251 0.13494402883101086
000330 22 d1 d8 db 9f e2 c5 bf 9d 68 65 76 3c 7d bd 3f
       -0.17097852930749818 0.1151922024777456
000340 2b 96 60 5c 6b 2d b4 bf bf 91 08 80 46 ec a7 3f
       -0.07881804471306768 0.04672451317700021
000350 3c 91 5b 7a db 9d b0 3f bf f8 55 73 fe 7a c7 3f
       0.06490871178863683 0.18344097739822549
000360 cd 57 47 89 4d fc ab bf 45 f9 17 60 f2 04 9f bf
       -0.05465929318204097 -0.03029230796345785
000370 ae 18 f7 8c 31 be a0 bf 87 5c ce 87 36 dd c1 bf
       -0.03270106168524599 -0.1395633853069038
000380 1e df fe 70 7a 5b 93 bf ad f1 43 0b ee f8 9a 3f
       -0.018903649470046628 0.026340217053972093
000390 df d3 eb 29 1e ad be 3f 74 92 08 e3 29 e3 25 3f
       0.11982906840769612 0.00016698728860932747
0003a0 8b 09 6b 42 a4 5f 9e bf aa 5d b7 bb e4 59 c8 bf
       -0.029661718896713245 -0.1902433315833439
0003b0 f3 08 c4 f7 c6 4d b1 3f 94 dd 46 06 ab eb 5f 3f
       0.06759303616493977 0.0019482774888340592
0003c0 5c 56 9f e9 a1 e0 bd 3f 70 b3 34 82 db ff 9a 3f
       0.11670886949226528 0.02636664373601455
0003d0 3c 22 55 ad 55 70 a0 bf 58 8e db 6c 50 bd ba bf
       -0.03210704556346797 -0.10445120484978909
0003e0 2a 25 8a f1 50 6d b7 3f
       0.09151178261722195

res_blocks.3.conv1.bias f8 [5]
000000 67 09 f0 63 c2 21 bf bf 0b ee fc 69 b5 0e bd bf
       -0.12160887660869478 -0.11350568616483529
000010 86 01 b1 d9 dd b2 c6 3f c5 1d 7d ea b2 a3 a5 3f
       0.17733357552971202 0.04226454842006037
000020 d7 1c 85 84 63 90 b6 bf
       -0.08814069733954298
